…
2025-09-05 22:13:19.886918: I tensorflow/core/platform/cpu_feature_guard.cc:210] This TensorFlow binary is optimized to use available CPU instructions in performance-critical operations.
To enable the following instructions: SSE3 SSE4.1 SSE4.2 AVX AVX2 AVX512F AVX512_VNNI FMA, in other operations, rebuild TensorFlow with the appropriate compiler flags.
Model Architecture:
Model: "sequential"
┏━━━━━━━━━━━━━━━━━━━━━━━━━━━━━━━━┳━━━━━━━━━━━━━━━━━━━━━━━━┳━━━━━━━━━━━━━━┓
┃ Layer (type)                   ┃ Output Shape           ┃      Param # ┃    
┡━━━━━━━━━━━━━━━━━━━━━━━━━━━━━━━━╇━━━━━━━━━━━━━━━━━━━━━━━━╇━━━━━━━━━━━━━━┩    
│ reshape (Reshape)              │ (None, 9, 1)           │            0 │    
├────────────────────────────────┼────────────────────────┼──────────────┤    
│ conv1d (Conv1D)                │ (None, 9, 64)          │          256 │    
├────────────────────────────────┼────────────────────────┼──────────────┤    
│ batch_normalization            │ (None, 9, 64)          │          256 │    
│ (BatchNormalization)           │                        │              │    
├────────────────────────────────┼────────────────────────┼──────────────┤    
│ dropout (Dropout)              │ (None, 9, 64)          │            0 │    
├────────────────────────────────┼────────────────────────┼──────────────┤    
│ conv1d_1 (Conv1D)              │ (None, 9, 128)         │       24,704 │    
├────────────────────────────────┼────────────────────────┼──────────────┤    
│ batch_normalization_1          │ (None, 9, 128)         │          512 │    
│ (BatchNormalization)           │                        │              │    
├────────────────────────────────┼────────────────────────┼──────────────┤    
│ dropout_1 (Dropout)            │ (None, 9, 128)         │            0 │    
├────────────────────────────────┼────────────────────────┼──────────────┤    
│ conv1d_2 (Conv1D)              │ (None, 9, 64)          │       24,640 │    
├────────────────────────────────┼────────────────────────┼──────────────┤    
│ batch_normalization_2          │ (None, 9, 64)          │          256 │    
│ (BatchNormalization)           │                        │              │    
├────────────────────────────────┼────────────────────────┼──────────────┤    
│ global_average_pooling1d       │ (None, 64)             │            0 │    
│ (GlobalAveragePooling1D)       │                        │              │    
├────────────────────────────────┼────────────────────────┼──────────────┤    
│ dense (Dense)                  │ (None, 128)            │        8,320 │    
├────────────────────────────────┼────────────────────────┼──────────────┤    
│ dropout_2 (Dropout)            │ (None, 128)            │            0 │    
├────────────────────────────────┼────────────────────────┼──────────────┤    
│ dense_1 (Dense)                │ (None, 64)             │        8,256 │    
├────────────────────────────────┼────────────────────────┼──────────────┤    
│ dropout_3 (Dropout)            │ (None, 64)             │            0 │    
├────────────────────────────────┼────────────────────────┼──────────────┤    
│ dense_2 (Dense)                │ (None, 32)             │        2,080 │    
├────────────────────────────────┼────────────────────────┼──────────────┤    
│ dropout_4 (Dropout)            │ (None, 32)             │            0 │    
├────────────────────────────────┼────────────────────────┼──────────────┤    
│ dense_3 (Dense)                │ (None, 1)              │           33 │    
└────────────────────────────────┴────────────────────────┴──────────────┘    
 Total params: 69,313 (270.75 KB)
 Trainable params: 68,801 (268.75 KB)
 Non-trainable params: 512 (2.00 KB)
Training model...
Epoch 1/50
18/18 ━━━━━━━━━━━━━━━━━━━━ 5s 40ms/step - accuracy: 0.6169 - loss: 0.6537 - val_accuracy: 0.5944 - val_loss: 0.6696 - learning_rate: 0.0010
Epoch 2/50
18/18 ━━━━━━━━━━━━━━━━━━━━ 0s 14ms/step - accuracy: 0.6819 - loss: 0.5962 - val_accuracy: 0.5944 - val_loss: 0.6502 - learning_rate: 0.0010
…
